demo2023/biosegment/CNN/out_datanewjun30/cnn.pth (torch, 120381 bytes, 28 tensors)

conv1.weight f4 [32, 1, 3, 3]
0	0xbe1e8286	-0.15479478
1	0x3e93d56a	0.2887376
2	0x3e96e3b0	0.29470587
3	0x3b5ed0b5	0.003399891
4	0xbe520a9b	-0.20511858
5	0xbe33b0b6	-0.17547879
6	0x3e866121	0.26245978
7	0x3e891917	0.26776955
8	0x3e9f8636	0.31157082
9	0x3da15c63	0.078789495
10	0xbe2aa9f5	-0.16666396
11	0x3e3804e0	0.1797061
12	0xbe732be0	-0.23747206
13	0xbe0d26f7	-0.13784395
14	0xbc6b885a	-0.01437577
15	0xbd8decb9	-0.06929917
16	0xbe90828b	-0.28224596
17	0x3e369545	0.1783038
18	0x3e92427c	0.2856635
19	0xbea41512	-0.32047325
20	0x3cb32635	0.021868804
21	0x3abf7c16	0.0014609124
22	0xbd769839	-0.060203765
23	0xbd93484f	-0.07191526
24	0xbea2c402	-0.31790167
25	0xbeb59dfd	-0.35472098
26	0x3e705c29	0.23472656
27	0x3e711e48	0.23546708
28	0x3e164da6	0.14678058
29	0x3d08f889	0.033440147
30	0x3e481091	0.1953757
31	0x3e0d5f93	0.1380599
32	0xbc844525	-0.016146252
33	0xbcfaafc1	-0.030601384
34	0x3e9d68ee	0.30744117
35	0x3d778b0d	0.060435344
36	0x3e3b8916	0.18314013
37	0xbe68b12f	-0.2272384
38	0x3dc676bf	0.09690618
39	0x3cfd06e1	0.03088707
40	0x3ea73190	0.32655
41	0xbb206aef	-0.00244778
42	0xbd926165	-0.07147483
43	0xbe043a6f	-0.12912916
44	0xbe1c3ded	-0.15257998
45	0xbe83ba32	-0.25727993
46	0xbe46309c	-0.1935448
47	0x3d04d769	0.032431994
48	0xbea558c6	-0.3229429
49	0x3d1df4ca	0.038563527
50	0x3e956b10	0.29183245
51	0x3dccfa7f	0.10008716
52	0xbd89c91a	-0.0672781
53	0x3e63e840	0.22256565
54	0x3d5420d2	0.051789112
55	0xbe7f60b6	-0.24939236
56	0x3e8bcc8b	0.2730449
57	0x3ea8e928	0.32990384
58	0xbe8185e7	-0.25297472
59	0x3c8f89e9	0.017521815
60	0xbca9d710	-0.020732433
61	0xbe2c5343	-0.16828637
62	0xbdc29583	-0.09501173
63	0x3bfe1045	0.0077534043
64	0x3e4c3cdb	0.1994509
65	0x3e2a0a16	0.1660541
66	0x3e94a30d	0.29030648
67	0xbe9805d0	-0.29691935
68	0xbde6055c	-0.11231491
69	0x3c6d7db3	0.014495301
70	0xbe8e51a9	-0.27796677
71	0xbea1afde	-0.3157949
72	0xbe0a6b8e	-0.13517591
73	0xbdad7551	-0.08469642
74	0x3e0cc36d	0.13746424
75	0x3db22f3c	0.087004155
76	0xbd0d325e	-0.034471862
77	0x3e9dc53e	0.30814546
78	0xbcb62f71	-0.022239419
79	0xbdb892bc	-0.09012362
80	0x3e974e61	0.29551986
81	0x3c2d4fab	0.010578076
82	0xbc98de49	-0.018660681
83	0x3df794cb	0.12088927
84	0x3cee8f39	0.029121028
85	0x3d2192c5	0.03944661
86	0x3c2d901b	0.010593439
87	0x3e10149c	0.14070362
88	0x3e566287	0.20936023
89	0x3c51661a	0.012780691
90	0xbd3d46b4	-0.046210006
91	0xbdf1f24e	-0.11813794
92	0xbde2ebb8	-0.11080116
93	0xbe4d306a	-0.20038
94	0x3e986cd6	0.29770535
95	0xbea2566b	-0.31706557
96	0x3e9c7ce4	0.30564034
97	0xbd7cf7af	-0.061759647
98	0xbe1c0e65	-0.15239866
99	0xbdb25423	-0.08707454
100	0x3d64a1fb	0.05581854
101	0x3de674b5	0.11252729
102	0x3e8b3104	0.27185833
103	0x3ea0fde6	0.3144371
104	0xbda51d05	-0.08062176
105	0xbdb97c51	-0.090569146
106	0x3d732559	0.05936179
107	0xbe64716e	-0.22308895
108	0x3c5fb557	0.013654075
109	0x3e6153a2	0.2200456
110	0x3e7ee4b9	0.24891938
111	0x3e78f43c	0.24311918
112	0x3e2c8836	0.16848835
113	0xbd452a0c	-0.048135802
114	0xbe8ab699	-0.27092436
115	0xbe8d52a3	-0.2760211
116	0xbe9048da	-0.2818058
117	0x3d4fb284	0.050707355
118	0xbe297c1f	-0.16551255
119	0xbe05327a	-0.13007537
120	0xbe897ef0	-0.26854658
121	0xbcff90f8	-0.031197056
122	0x3e30ea7f	0.17276953
123	0x3ea777d2	0.32708603
124	0xbc370967	-0.011171675
125	0x3e912247	0.28346464
126	0x3e9e4ca8	0.3091786
127	0xbe17e093	-0.14831762
128	0xbc694412	-0.014237421
129	0x3e787eb7	0.24267088
130	0x3db16669	0.08662111
131	0xbc2baf24	-0.0104787685
132	0xbdb0bbc1	-0.08629561
133	0xbe0af51b	-0.13570063
134	0x3e4420b4	0.191531
135	0x3e7c5eb8	0.24645507
136	0xbdfa76af	-0.12229668
137	0xbe8991f0	-0.26869154
138	0x3e86af02	0.26305395
139	0xbe1bb873	-0.1520708
140	0xbe514a66	-0.20438537
141	0x3e13b045	0.1442271
142	0x3e51bd6e	0.20482418
143	0xbd459114	-0.04823406
144	0x3e419401	0.18904115
145	0x3e2f8b56	0.17142996
146	0x3d07d1f6	0.03315922
147	0x3e8a99ca	0.27070457
148	0x3e577a7f	0.21042822
149	0xbe4346bd	-0.19069953
150	0x3e4d7bf2	0.20066813
151	0x3d974636	0.073864385
152	0xbd631a1f	-0.055444833
153	0xbdc4d438	-0.0961079
154	0x3e55a952	0.20865372
155	0xbd0c8740	-0.034308672
156	0xbeadda69	-0.33955696
157	0x3e871c6c	0.26388872
158	0xbda83599	-0.08213348
159	0xbe95cfde	-0.29260153
160	0x3d847ffb	0.06469723
161	0x3df27d62	0.11840321
162	0x3d5c0cf9	0.05372331
163	0xbe890aa0	-0.2676592
164	0xbeb2edcf	-0.3494706
165	0x3e3b2e94	0.18279487
166	0xbe27842b	-0.16359012
167	0xbd920bb0	-0.071311355
168	0x3e8bb713	0.27288112
169	0xbe88bd20	-0.2670679
170	0x3e090fd9	0.13384952
171	0xbe99ec7e	-0.30063242
172	0xbdc3a5e5	-0.09553126
173	0xbe8492fb	-0.25893387
174	0xbd4530eb	-0.048142355
175	0x3de3e2a1	0.111272104
176	0xbea71eba	-0.3264063
177	0xbe775b80	-0.24155998
178	0xbe77d24e	-0.24201319
179	0xbd8b1fc9	-0.06793172
180	0x3e889941	0.26679423
181	0x3d6d04e3	0.05786599
182	0x3e81eca7	0.25375864
183	0xbe04b424	-0.12959343
184	0xbdff8552	-0.12476601
185	0x3e906b9c	0.282071
186	0x3de3926e	0.111119136
187	0xbe646e39	-0.22307672
188	0x3e843161	0.25818923
189	0xbea3d03f	-0.31994817
190	0x3e2514e3	0.16121249
191	0xbe925d4a	-0.285868
192	0xbe8be545	-0.27323356
193	0x3e7cd06e	0.24688885
194	0x3e07ca58	0.13260782
195	0x3dfdfa1b	0.124012195
196	0xbe9828ce	-0.29718632
197	0x3e5a7831	0.21334912
198	0xbe42d7d4	-0.19027644
199	0xbe91f690	-0.28508425
200	0xbe1127b0	-0.14175296
201	0x3d0b16f8	0.03395745
202	0xbe17e257	-0.14832436
203	0xbe32da00	-0.17465973
204	0xbe97adcc	-0.29624784
205	0xbd85cfd0	-0.06533778
206	0x3e5fbfa9	0.21850456
207	0x3e93df78	0.2888143
208	0x3e600e73	0.21880512
209	0xbcab2163	-0.020889943
210	0xbe5dc76e	-0.21658108
211	0xbac4d3cf	-0.0015016737
212	0x3e47677c	0.1947307
213	0x3d4d585c	0.050133094
214	0x3e2f2afb	0.1710624
215	0x3e39df0a	0.18151489
216	0x3e6fa95a	0.23404446
217	0xbdd3f19c	-0.10348818
218	0xbe468977	-0.19388376
219	0xbe95623d	-0.29176512
220	0x3e2241b9	0.15845384
221	0x3d8b2606	0.06794362
222	0x3d94865d	0.0725219
223	0x3e8e3c42	0.27780348
224	0xbdbba486	-0.0916224
225	0xbd9b6d06	-0.07589154
226	0xbe7b2389	-0.24525274
227	0xbe9da76a	-0.3079179
228	0xbcfb896f	-0.030705182
229	0x3e9c002e	0.30468887
230	0xbce114c1	-0.027475717
231	0xbe855629	-0.26042297
232	0x3e7e4c22	0.2483373
233	0xbea060d9	-0.3132389
234	0x3e609106	0.21930322
235	0x3d5c36a0	0.053763032
236	0xbe9b6bee	-0.3035578
237	0xbe48dbaa	-0.19615045
238	0x3e361082	0.17779735
239	0x3dda00b5	0.10644666
240	0x3e85bd3c	0.26120937
241	0xbe8a8091	-0.27051213
242	0x3d5b7264	0.05357589
243	0x3dc37583	0.09543898
244	0x3ea8b5d6	0.3295123
245	0x3e6d9b4a	0.2320377
246	0x3e4841b1	0.1955631
247	0xbe8c7420	-0.27432346
248	0xbe65e009	-0.22448744
249	0x3c544d36	0.012957862
250	0xbc694a9c	-0.01423898
251	0x3e56dc7c	0.20982546
252	0xbe2b456e	-0.16725704
253	0xbdb60e40	-0.08889437
254	0xbe400759	-0.18752803
255	0x3e43f170	0.1913507

conv1.bias f4 [32]
0	0xbd7132de	-0.0588864
1	0x3dbdc7f9	0.092666574
2	0xbd89611a	-0.06707974
3	0xb58e7b18	-1.061565e-06
4	0x3a9563fd	0.0011397597
5	0x3b7a388e	0.0038180682
6	0x3e0f70b8	0.14007843
7	0xbdfc8bb4	-0.12331334
8	0xbd8c9a57	-0.068653755
9	0x3cf83927	0.03030069
10	0x3deae67a	0.11469741
11	0x3d190331	0.03735656
12	0xbc382dae	-0.01124136
13	0xbc0998d3	-0.008398253
14	0xbbb18447	-0.00541738
15	0xbda510ed	-0.08059869
16	0xbe01cad1	-0.12675025
17	0xb752c382	-1.2562496e-05
18	0x3d928225	0.07153729
19	0xbacb09fc	-0.0015490646
20	0xbd3e8213	-0.046510767
21	0x3d4718c6	0.04860761
22	0xbdf0b0f4	-0.11752501
23	0xb4cc7607	-3.8083837e-07
24	0x3c29f59b	0.010373498
25	0xbdf2fad2	-0.118642464
26	0xbc2e5e57	-0.01064261
27	0x3d8a0f34	0.06741181
28	0x3931b177	0.00016946146
29	0xbd4ed68c	-0.050497577
30	0x3ddd304f	0.1080023
31	0x392a93a2	0.00016267461

bn1.weight f4 [32]
0	0x3f823302	1.0171816
1	0x3f7fc043	0.99902743
2	0x3f7b3369	0.9812532
3	0x3f8104b3	1.0079559
4	0x3f78f011	0.9724131
5	0x3f7e17a9	0.9925485
6	0x3f7c6137	0.9858584
7	0x3f7eab2b	0.9947993
8	0x3f7c5832	0.98572075
9	0x3f85041b	1.0391878
10	0x3f7c756f	0.9861669
11	0x3f7db7a5	0.99108344
12	0x3f84a3a9	1.0362445
13	0x3f7db597	0.9910521
14	0x3f7c8c75	0.9865182
15	0x3f7c5105	0.98561126
16	0x3f7eb1b3	0.994899
17	0x3f7f3231	0.9968596
18	0x3f7ee150	0.9956255
19	0x3f837cd5	1.0272471
20	0x3f80dea5	1.0067946
21	0x3f7fef1c	0.99974227
22	0x3f800faa	1.000478
23	0x3f7cfc4f	0.9882249
24	0x3f7f5f82	0.9975511
25	0x3f8094e4	1.0045438
26	0x3f7cce18	0.98751974
27	0x3f7fd938	0.99940825
28	0x3f7eefe6	0.99584806
29	0x3f7b7cbd	0.9823721
30	0x3f806a0f	1.0032367
31	0x3f7f94e7	0.9983658

bn1.bias f4 [32]
0	0xbc4d2e75	-0.012523283
1	0x3be4408f	0.006965704
2	0x3bd9dd8c	0.006648725
3	0x3c74d184	0.014942531
4	0xbc429b40	-0.011877835
5	0x3bcd950d	0.0062738718
6	0x3cba42ba	0.022736896
7	0xbbebdc59	-0.0071978983
8	0x3cb1a000	0.02168274
9	0x3d8791c9	0.06619603
10	0xbca1ea3a	-0.019765008
11	0x3d0f3ec7	0.03497198
12	0xbce18b61	-0.027532281
13	0xbcc67146	-0.024223935
14	0x3ce5c380	0.028047323
15	0xbbdc963e	-0.0067317775
16	0x3d5fd1e1	0.054643515
17	0xbcb3fbc8	-0.021970645
18	0x3d276231	0.040865127
19	0x3a247f87	0.00062751066
20	0x3c9b09db	0.018925598
21	0x3cf5cc55	0.03000466
22	0xbab5c97f	-0.0013869255
23	0x3c655c90	0.013999119
24	0x3c87b327	0.016564919
25	0xbc18bf03	-0.0093228845
26	0x3b50ca25	0.0031858769
27	0xbcb8794d	-0.022518778
28	0x3d33c95d	0.043893207
29	0x3d18cfe3	0.03730763
30	0xbc15758a	-0.009122262
31	0xbce32bb2	-0.027730796

bn1.running_mean f4 [32]
0	0xbc244320	-0.0100257695
1	0x3dcbc35c	0.09949371
2	0xbdb2c830	-0.08729589
3	0xbcb7c721	-0.02243382
4	0xbd34a4a0	-0.04410231
5	0x3d372084	0.044708744
6	0x3de95199	0.11392517
7	0xbe316e09	-0.17327131
8	0xbd9571d4	-0.072971016
9	0x3d2d04d4	0.042240933
10	0x3e180850	0.14846921
11	0xbc47c421	-0.012192757
12	0xbde3ca0a	-0.1112252
13	0x3d4d2ed4	0.050093487
14	0xbd12f9e5	-0.03588285
15	0xbd4b90a4	-0.049698487
16	0xbe1ddffd	-0.15417476
17	0xbb46cf35	-0.0030335907
18	0x3de9e4d9	0.11420602
19	0x3c831e90	0.016005784
20	0xbd939a2a	-0.07207139
21	0x3d8e92bc	0.06961581
22	0xbd99e66a	-0.07514651
23	0xbb0f05ab	-0.0021823447
24	0x3d0b9ec4	0.034086958
25	0xbdee993c	-0.11650321
26	0xbc4d57a6	-0.012533104
27	0x3d7077b5	0.05870791
28	0xbc267708	-0.010160215
29	0xbdb8e401	-0.09027863
30	0x3dcdcf16	0.10049264
31	0x3d2d295a	0.042275764

bn1.running_var f4 [32]
0	0x4021348f	2.518833
1	0x3f57d555	0.84309894
2	0x3efb9581	0.491375
3	0x3f93fe02	1.1561892
4	0x3f680038	0.90625334
5	0x3f9d8b78	1.2308187
6	0x3eb3467b	0.3501471
7	0x3fa11bc3	1.2586597
8	0x3f36d0e4	0.7141249
9	0x3e13c1e5	0.14429434
10	0x3f3285e1	0.69735533
11	0x3fc2a4e6	1.5206573
12	0x401be838	2.4360485
13	0x3f4f6f25	0.8102897
14	0x3f3f3eaa	0.7470499
15	0x3f28c6c2	0.6592828
16	0x3f93a490	1.1534595
17	0x3ebfafa5	0.37438694
18	0x3fd93bb1	1.6971341
19	0x40019328	2.0246067
20	0x3fcff025	1.6245161
21	0x3f9a647d	1.2061917
22	0x4004d3d5	2.0754292
23	0x3fb3446d	1.4005257
24	0x3edbb688	0.42912698
25	0x401cfa40	2.452774
26	0x3ed42c45	0.41440025
27	0x4039037a	2.8908372
28	0x402c547a	2.692656
29	0x3f6b7cf0	0.91987514
30	0x3faf4fa8	1.3696184
31	0x3fca7f13	1.582003

conv2.weight f4 [32, 32, 2, 2]
0	0xbd63b420	-0.055591702
1	0x3d9bf87e	0.076157555
2	0x3cd1c944	0.025608666
3	0x3d26581f	0.040611383
4	0x3db730fb	0.08944889
5	0xbc97843c	-0.018495671
6	0x3a045804	0.0005048516
7	0xbd52188f	-0.051292952
8	0xbd14580d	-0.036216784
9	0x3d8b04d6	0.06788032
10	0xbd593a2d	-0.053033996
11	0x3d8821f4	0.06647101
12	0x3b82001e	0.003967299
13	0xbca20e27	-0.019782139
14	0x3d9ba27c	0.07599351
15	0xbbd5fa42	-0.006530077
16	0x3ba260c8	0.004955385
17	0xbd5fd2cd	-0.054644395
18	0x3d405a21	0.046960954
19	0xbd99851f	-0.07496094
20	0x3d37b2f8	0.044848412
21	0x3d937fa6	0.072020814
22	0x3d84607d	0.06463716
23	0xbc98524e	-0.018593933
24	0xbd9452d4	-0.07242361
25	0x3d259b5e	0.040431373
26	0xbd8cab2e	-0.068685874
27	0xbc9513ad	-0.018197859
28	0xbd6096cc	-0.05483131
29	0x3ce6f68f	0.02819374
30	0xbd79b52f	-0.060963806
31	0xbd505fa3	-0.050872456
32	0xbc872c8a	-0.01650073
33	0xbd2f3bc0	-0.04278159
34	0xbc9e9b65	-0.019361207
35	0x3cf29076	0.0296099
36	0x3d94271b	0.07234021
37	0x3db74053	0.08947816
38	0xbbf86d6b	-0.007581403
39	0x3d597f57	0.053099956
40	0xbcc2a85c	-0.02376192
41	0xbca9d34e	-0.02073064
42	0x3cd99ed8	0.026565
43	0xbd085c71	-0.033291284
44	0x3dc10f9a	0.09426804
45	0x3cacf336	0.021112066
46	0xbdb3d7f5	-0.08781425
47	0xbd2d69af	-0.042337116
48	0x3dac66f3	0.084180735
49	0xbd953eae	-0.07287346
50	0xbdab9e5a	-0.083798125
51	0xbddeaca8	-0.10872775
52	0x3d9fc7c8	0.07801777
53	0xbc63d93b	-0.013906772
54	0x3d80d183	0.06289961
55	0x3b0d911c	0.0021601385
56	0xbcec4e94	-0.028846063
57	0xbce09b15	-0.027417699
58	0x3bf45829	0.0074567986
59	0x3cc6826e	0.024232116
60	0xbd08e39f	-0.0334202
61	0xbbd936f1	-0.006628864
62	0x3b9277c2	0.0044698426
63	0x3daa75c4	0.08323243
64	0x3dc461ef	0.09588992
65	0x3dbab9e3	0.09117486
66	0xbca397cd	-0.019969845
67	0x3d7919aa	0.06081549
68	0xbcafce67	-0.021460725
69	0x3dc064c0	0.093942165
70	0x3d827577	0.06370061
71	0x3ca22bc5	0.019796262
72	0x3cfb6263	0.030686563
73	0xbd8d2ca0	-0.06893277
74	0xbc6471c6	-0.013943141
75	0x3b5efc49	0.0034024885
76	0x3dbb07e6	0.09132366
77	0x3d4aaa88	0.049479038
78	0x3d1cf333	0.03831787
79	0xbcddd6ba	-0.027079929
80	0x3d828560	0.063730955
81	0xbbf9885c	-0.0076151323
82	0x3cf1bc4b	0.02950873
83	0xbd55b5cb	-0.052175324
84	0x3d6f5e4c	0.058439538
85	0xbd2b22fe	-0.041781418
86	0xbcf61d80	-0.030043364
87	0x3d9b3fd0	0.07580531
88	0x3d42ed18	0.04758939
89	0x3dade3bf	0.08490705
90	0x3d0dcc15	0.034618456
91	0xbc537b13	-0.012907761
92	0x3d0e01f9	0.03466985
93	0xbd510933	-0.051034164
94	0x3bb7ce0a	0.0056092786
95	0x3c4a7aa5	0.012358342
96	0xbc7b4a5f	-0.015337556
97	0xbd5ef124	-0.05442919
98	0xbc74a9eb	-0.01493309
99	0xbd1d44d2	-0.03839571
100	0xbd6c81ab	-0.05774085
101	0x3d7501aa	0.05981604
102	0xbcb24c06	-0.021764766
103	0xbcdb0e18	-0.026740119
104	0xbd89ce8d	-0.067288496
105	0xbd6d2fa3	-0.057906758
106	0xbd64306e	-0.05571025
107	0x3d8f2d5c	0.069910735
108	0x3d815f67	0.06317025
109	0x3a52a557	0.0008035502
110	0xbb99f48a	-0.004698341
111	0xbc9e6d5b	-0.019339254
112	0xbbb8e453	-0.0056424527
113	0xbd8e3421	-0.069435365
114	0x3d807202	0.06271745
115	0xbcd24d75	-0.0256717
116	0xbce75f49	-0.028243678
117	0xbd610a15	-0.054941256
118	0x3cf87eba	0.030333865
119	0xbce1ba58	-0.027554676
120	0x3d554a8c	0.052073047
121	0xbd57d356	-0.05269178
122	0x3d6f2c08	0.0583916
123	0xbd233376	-0.039844
124	0xbc4e2043	-0.012580934
125	0x3d7bdf77	0.06149241
126	0x3d8e1749	0.06938035
127	0xbb711ff9	-0.0036792739
128	0x3baaa595	0.005207727
129	0xbd489bbd	-0.04897665
130	0xbc014d5a	-0.007891977
131	0x3dfab20c	0.12240991
132	0xbd432564	-0.04764308
133	0x3c8490be	0.0161823
134	0xbd9a6006	-0.07537846
135	0xbda0ac1c	-0.07845327
136	0xbd17670a	-0.0369635
137	0xbcc7e2a1	-0.024400057
138	0xbdbee87d	-0.09321687
139	0x3c94c954	0.018162407
140	0xbd31ffcd	-0.04345684
141	0xbda0bd01	-0.0784855
142	0x3d83cb2a	0.06435235
143	0x3c9f6c7f	0.019460915
144	0x3d38b8a0	0.045097947
145	0x3db88507	0.09009748
146	0xbd94d5cf	-0.07267343
147	0x3da278db	0.079332076
148	0xbccbf2e9	-0.024896102
149	0xbb456ebf	-0.0030125824
150	0xbd48064c	-0.04883413
151	0x3d1933a1	0.037402753
152	0xbcda2b13	-0.026631868
153	0xbdab31ab	-0.08359083
154	0xbdba33ec	-0.090919346
155	0xbd485dc5	-0.04891755
156	0xbdba32c3	-0.09091713
157	0x3c6e51a6	0.014545834
158	0x3d1b8562	0.037969
159	0xbdaf2267	-0.085514836
160	0x3bb26f9d	0.0054454342
161	0xbc9684a3	-0.018373793
162	0x3d79bda7	0.060971882
163	0xbd947d7d	-0.072504975
164	0x3d9c6b34	0.07637635
165	0xbd7babcf	-0.061443146
166	0xbc6a8d51	-0.014315919
167	0xbd6799f7	-0.056543317
168	0xbd4ce36b	-0.05002157
169	0xbc421975	-0.01184689
170	0xbc643c72	-0.013930427
171	0x3bcfdd4b	0.006343519
172	0x3c81a9e4	0.01582808
173	0x3dd649a0	0.104632616
174	0x3da4db0f	0.080495946
175	0xbd0b070a	-0.03394226
176	0x3d2cd250	0.042192757
177	0x3da15b7b	0.07878777
178	0xbe0b18db	-0.135837
179	0x3d0d27a7	0.034461644
180	0xbdc90aca	-0.09816511
181	0x3cc213b8	0.023691043
182	0xbc87dcd1	-0.016584786
183	0xbd97efb2	-0.07418765
184	0x3dce3808	0.10069281
185	0x3cdc3208	0.026879326
186	0xbd9c145f	-0.07621073
187	0x3d60e711	0.054907862
188	0xbcc68626	-0.024233889
189	0x3d7a119e	0.061051957
190	0x3d68dc33	0.056850623
191	0xbcfc4fc8	-0.030799761
192	0xbcea40c0	-0.028595328
193	0xbd60c39c	-0.054874048
194	0xbda6e78d	-0.081496336
195	0xbc6b05c9	-0.014344641
196	0x3d8ead87	0.069666915
197	0xbd4b05d5	-0.04956611
198	0xbd12b712	-0.03581912
199	0x3cabd228	0.020974234
200	0x3dd9108b	0.105988584
201	0xbd65163d	-0.05592941
202	0x3d917b7a	0.071036294
203	0xbca9b244	-0.020714886
204	0xbd8e4e71	-0.06948555
205	0x3d3b43b5	0.045718867
206	0x3d2f0a25	0.042734284
207	0xbd7f52a0	-0.062334657
208	0xbc8b6c49	-0.017019408
209	0xbd593171	-0.053025667
210	0xbc204391	-0.009781734
211	0x3d733fc5	0.059386987
212	0x3d6e38e8	0.05815974
213	0xbd1dd620	-0.038534284
214	0xbc801257	-0.015633745
215	0x3c41e0eb	0.01183341
216	0xbd186fd4	-0.037216023
217	0xbc451b39	-0.012030416
218	0x3cf904f9	0.030397879
219	0x3c4ca15b	0.012489642
220	0x3cc2be20	0.0237723
221	0x3d20d44e	0.03926497
222	0xbaa19922	-0.0012328962
223	0x3dbbec2c	0.091759056
224	0x3ca7a0a6	0.020462345
225	0xbdb04f20	-0.08608842
226	0x3d98555d	0.07438157
227	0x3cbcfd7c	0.02307009
228	0xbd9c1d9f	-0.07622837
229	0x3d415e34	0.04720898
230	0xbd850377	-0.064948015
231	0xbd3d1b7b	-0.046168786
232	0xbcfa5d07	-0.030561937
233	0xbd4730eb	-0.048630636
234	0x3d85601f	0.06512474
235	0x3ce8228c	0.028336786
236	0xbd87034b	-0.06592425
237	0x3d46e883	0.048561584
238	0xbd2537d8	-0.04033646
239	0x3d2f5c42	0.042812593
240	0x3bc7b0bb	0.006094066
241	0x37a790ea	1.9975432e-05
242	0x3ddba5c0	0.10724974
243	0x3d9988b4	0.07496777
244	0xbd9f5279	-0.07779402
245	0x3a37eb19	0.0007015928
246	0xbd9acc1d	-0.07558463
247	0xbd82cba0	-0.06386495
248	0x3d64fa01	0.055902485
249	0xbd89295d	-0.066973425
250	0x3c45476b	0.012040953
251	0xba3a8975	-0.00071158196
252	0x3cd85190	0.02640608
253	0x3da1c0ea	0.078981236
254	0x3d993aab	0.07481893
255	0x3dbf9d44	0.09356168

conv2.bias f4 [32]
0	0xb3d61d39	-9.970467e-08
1	0xb48762c3	-2.5217568e-07
2	0x38979c96	7.2294075e-05
3	0x35942a60	1.1039192e-06
4	0x36ddfb97	6.615602e-06
5	0xb5644dae	-8.504966e-07
6	0x338bf91a	6.518003e-08
7	0xb37334d6	-5.66259e-08
8	0x361effa0	2.3692628e-06
9	0x33cbb3ee	9.485653e-08
10	0xb3b5bc7a	-8.462753e-08
11	0x3631afd6	2.6477405e-06
12	0x36e622e2	6.858595e-06
13	0xb6ae6321	-5.197144e-06
14	0x322d54c1	1.0089196e-08
15	0xb42142ad	-1.501855e-07
16	0x340bb71b	1.3011997e-07
17	0xb5a8857d	-1.2555826e-06
18	0xb7054531	-7.943528e-06
19	0x358e52f8	1.0603972e-06
20	0xb7045679	-7.887947e-06
21	0xb497b79c	-2.8259535e-07
22	0xb4249fd9	-1.5331842e-07
23	0x3934aa53	0.00017229588
24	0xb90dddcf	-0.00013529438
25	0x34f1f976	4.5071255e-07
26	0xb29f076e	-1.8513415e-08
27	0x34c093ee	3.587042e-07
28	0x3620388b	2.387477e-06
29	0x336e9dda	5.555726e-08
30	0xb4cb0ead	-3.7822375e-07
31	0xb652f0d8	-3.1432628e-06

bn2.weight f4 [32]
0	0x3f8135a8	1.00945
1	0x3f815cca	1.0106442
2	0x3f7e6a7b	0.99381226
3	0x3f7af4d9	0.9802986
4	0x3f7d16a5	0.9886268
5	0x3f7fdffa	0.99951136
6	0x3f810634	1.0080018
7	0x3f84e513	1.0382408
8	0x3f83a9cd	1.0286194
9	0x3f817099	1.0112487
10	0x3f80645c	1.0030627
11	0x3f815901	1.0105287
12	0x3f7b2593	0.9810421
13	0x3f77f3df	0.9685649
14	0x3f7dd6ff	0.99156183
15	0x3f7ff0e9	0.99976975
16	0x3f7ac7a3	0.9796087
17	0x3f848e26	1.035588
18	0x3f7ca35c	0.98686767
19	0x3f803b34	1.0018067
20	0x3f7ccb9c	0.98748183
21	0x3f7b87dd	0.98254186
22	0x3f784d15	0.9699262
23	0x3f7f4c61	0.9972592
24	0x3f7e9905	0.9945224
25	0x3f7af1a9	0.98024994
26	0x3f8022fb	1.0010675
27	0x3f82217b	1.0166467
28	0x3f82f298	1.0230284
29	0x3f80f1cb	1.0073789
30	0x3f7f2e97	0.99680465
31	0x3f80cb9c	1.0062137

bn2.bias f4 [32]
0	0xbbd80adc	-0.0065930914
1	0x3cc54c30	0.02408418
2	0x3bf07f47	0.0073393914
3	0xbcb52f63	-0.022117322
4	0xbcf6be65	-0.030120084
5	0xbcc749d7	-0.024327202
6	0xbce780f9	-0.028259741
7	0x3d03f834	0.032219127
8	0x3d74ad59	0.05973563
9	0x3cfffdeb	0.031249007
10	0x3baf6332	0.005352401
11	0xbd2bcad0	-0.041941464
12	0xbc6a1715	-0.01428773
13	0xbc9eac34	-0.019369222
14	0xbb9acc17	-0.0047240364
15	0x3ba1e399	0.004940462
16	0x3c78a2a9	0.0151755
17	0x3d322f5e	0.043502204
18	0xbcd7e2d6	-0.026353281
19	0x3cded730	0.027202219
20	0x3cc9eab7	0.024648054
21	0x3c848bb6	0.0161799
22	0x3cb22637	0.021746738
23	0x3caee91d	0.021351391
24	0xbbb2da4d	-0.0054581524
25	0xbc82354f	-0.01589456
26	0x3c4b1be6	0.012396788
27	0xbc9ffb88	-0.01952912
28	0x3c71960d	0.014745248
29	0xbd1f5953	-0.038903546
30	0x3cd13751	0.025539072
31	0x3cc1179e	0.023570832

bn2.running_mean f4 [32]
0	0x3e1d630c	0.15369815
1	0xbe50738d	-0.20356579
2	0xbdd764aa	-0.10517247
3	0xbe3a1c95	-0.18174966
4	0x3da80229	0.08203537
5	0xbdc6b56a	-0.09702571
6	0xbe82f8bb	-0.2558039
7	0xbc9569a1	-0.018238844
8	0xbdb6b3de	-0.08921026
9	0xbdeddf63	-0.11614873
10	0xbe0d6faf	-0.13812135
11	0xbd9a6478	-0.07538694
12	0xbe3ea709	-0.18618406
13	0x3e905b67	0.28194734
14	0xbd9adbe7	-0.07561474
15	0x3c8f0f28	0.017463282
16	0xbe926987	-0.28596136
17	0xbdf9938c	-0.121863455
18	0x3ea61678	0.32439017
19	0xbe86be4e	-0.26317066
20	0xbd8fa9eb	-0.07014831
21	0xbe0b0225	-0.13575037
22	0x3d8f7070	0.070038676
23	0xbe316136	-0.1732224
24	0x3ed5dc86	0.4176981
25	0x3e90a003	0.2824708
26	0xbdf96497	-0.12177389
27	0xbdc0dbd0	-0.09416926
28	0xbc1ed355	-0.00969394
29	0x3ddea697	0.10871618
30	0xbcf54317	-0.029939217
31	0x3ec0ac01	0.3763123

bn2.running_var f4 [32]
0	0x3ec2649b	0.3796738
1	0x3e3bcff3	0.18341045
2	0x3e1f9cef	0.15587209
3	0x3e7dfc83	0.24803357
4	0x3e55e0c7	0.20886527
5	0x3dbc94d6	0.09208076
6	0x3ea2874d	0.3174385
7	0x3e076a26	0.13224086
8	0x3e479f1a	0.19494286
9	0x3e28d788	0.16488469
10	0x3e6a6157	0.22888695
11	0x3eba3cc0	0.36374474
12	0x3eeae9c8	0.45881486
13	0x3f0c8f39	0.5490604
14	0x3e1dd9b9	0.15415086
15	0x3ee1c4f6	0.44095582
16	0x3ea3f458	0.32022357
17	0x3e79b5ae	0.24385712
18	0x3f435597	0.76302475
19	0x3f1bf7d5	0.60925037
20	0x3dc0d18a	0.094149664
21	0x3e19765e	0.1498656
22	0x3de407c3	0.11134293
23	0x3e972162	0.29517657
24	0x3f4442e8	0.7666459
25	0x3f1acebc	0.604717
26	0x3e60f057	0.21966682
27	0x3e0ae303	0.1356316
28	0x3d590b4f	0.0529893
29	0x3f4a4f7a	0.7902752
30	0x3e8ca2d0	0.27467966
31	0x3f4c81db	0.79885644

conv3.weight f4 [64, 32, 1, 1]
0	0x3e241e11	0.16027094
1	0xbd1b12b5	-0.037859637
2	0x3e1c256f	0.15248655
3	0xbe1b36e4	-0.15157658
4	0xbe253f9f	-0.16137551
5	0xbc77c975	-0.015123715
6	0x3e31601c	0.17321819
7	0x3d72f0ed	0.059311796
8	0x3b624c86	0.0034530475
9	0x3e16d03f	0.14727877
10	0x3e05322f	0.13007425
11	0x3cc68852	0.024234924
12	0x3cc88d0d	0.02448132
13	0xbe12fb50	-0.1435368
14	0x3dd2282b	0.10261568
15	0x3e2acf72	0.16680697
16	0x3c75c71d	0.015001086
17	0x3e082a43	0.13297372
18	0xbd8042a0	-0.06262708
19	0xbd746c7f	-0.059673782
20	0xbe02bbb1	-0.12766911
21	0xbe2d1210	-0.16901422
22	0x3d99c613	0.07508483
23	0xbdba3955	-0.090929665
24	0x3e051140	0.12994862
25	0xbbd058e5	-0.0063582533
26	0xbd41da02	-0.04732705
27	0xbd305044	-0.043045297
28	0x3d336472	0.043796964
29	0xbc0c26f4	-0.008554209
30	0xbdfb8700	-0.122816086
31	0x3aa2c6ea	0.00124189
32	0xbe3974bb	-0.18110935
33	0xbe1cbf22	-0.15307286
34	0x3e068e51	0.13140227
35	0xbde74934	-0.11293259
36	0x3d0983de	0.033573024
37	0xbc1e1ba3	-0.009650144
38	0x3d0481a4	0.032350197
39	0x3e1afa9c	0.15134662
40	0x3cb1a749	0.021686213
41	0x3dcfe6b9	0.10151429
42	0x3c2acaaa	0.010424295
43	0x3ca06fb5	0.019584516
44	0xbe091796	-0.13387904
45	0x3c6f3641	0.0146003375
46	0x3db4cd1d	0.08828185
47	0x3ce01566	0.027353954
48	0xbd246b5a	-0.04014144
49	0x3e1126c1	0.1417494
50	0x3e17f1bf	0.14838313
51	0x3e1261b8	0.14295089
52	0x3d8ba91f	0.06819367
53	0x3e31f693	0.17379217
54	0x3dc520a0	0.09625363
55	0xbc5f7129	-0.013637819
56	0x3d1b4a72	0.037912793
57	0xbe1e679e	-0.15469214
58	0xbd65339f	-0.055957433
59	0xbd607733	-0.054801177
60	0xbc813313	-0.015771424
61	0x3e13d3aa	0.14436212
62	0x3cd141d0	0.025544077
63	0xbdaffc9e	-0.08593105
64	0x3ccb6b7e	0.02483153
65	0x3e15b547	0.14619933
66	0x3e3f5fb6	0.18688855
67	0xbc006c17	-0.007838271
68	0x3c5396fc	0.012914415
69	0xbb3ce780	-0.0028824508
70	0xbd6bf6fd	-0.057608593
71	0x3d8dbf95	0.06921307
72	0x3de9f444	0.11423543
73	0x3e342a4e	0.17594263
74	0x3c874483	0.016512161
75	0xbba11473	-0.004915768
76	0xbd908374	-0.07056323
77	0x3d7f3e9a	0.06231556
78	0xbe3f2dc0	-0.18669796
79	0xbd9a6fd9	-0.075408645
80	0x3e11cf0d	0.1423914
81	0xbe20fdcf	-0.1572182
82	0x3de46573	0.111521624
83	0x3c26cda7	0.010180867
84	0x3dcb53a1	0.0992806
85	0x3d9fb00d	0.07797251
86	0xbddfd8ff	-0.109300606
87	0x3d0861a2	0.033296235
88	0xbd38b22e	-0.0450918
89	0xbe2dcf00	-0.16973495
90	0x3de6f693	0.11277499
91	0xbc65b49d	-0.014020112
92	0xbd33cb0d	-0.043894816
93	0x3e04b243	0.12958626
94	0x3d52e716	0.051489912
95	0xbdd87211	-0.105686314
96	0xbdb1e023	-0.08685329
97	0xbe526367	-0.20545731
98	0x3dd5f378	0.104468286
99	0x3d05bad8	0.03264889
100	0x3cae0cb0	0.021246284
101	0xbdbea90a	-0.093095854
102	0xbdaf3a98	-0.08556098
103	0x3e10fdbe	0.14159295
104	0x3d9fb08e	0.07797347
105	0x3d9f22e8	0.0777033
106	0xbe0e16d8	-0.13875902
107	0xbdc71c8e	-0.09722243
108	0xbce57cc3	-0.028013593
109	0x3df8e177	0.12152379
110	0x3e014de3	0.12627368
111	0x3d47303b	0.04862998
112	0x3cbf7fab	0.023376307
113	0xbdb8ac95	-0.090172924
114	0xbdaa8eff	-0.083280556
115	0x3defbf4f	0.11706411
116	0x3de17feb	0.110107265
117	0x3e153a30	0.14572978
118	0xbd31fff6	-0.043456994
119	0x3d9f71f4	0.07785407
120	0x3c740b92	0.014895337
121	0x3c1983da	0.009369815
122	0x3c83db0b	0.016095659
123	0x3cca6fc6	0.0247115
124	0xbe1776ea	-0.14791456
125	0x3ddba706	0.107252166
126	0xbd207860	-0.0391773
127	0xbda7e9a7	-0.081988625
128	0x3c913a85	0.0177281
129	0xbd8c21b9	-0.068423696
130	0x3e21f88a	0.15817466
131	0x3bd59e41	0.0065191095
132	0x3e2977b2	0.16549566
133	0xbd49f734	-0.049308017
134	0x3dfc264e	0.123119935
135	0x3e14b013	0.14520292
136	0xbd18634b	-0.03720407
137	0x3bcf3bec	0.006324282
138	0x3ddd3319	0.10800762
139	0x3dea4820	0.11439538
140	0xbe0e71d7	-0.13910614
141	0xbd9be48f	-0.076119535
142	0x3d8b0bc1	0.06789351
143	0x3e2a9153	0.16657
144	0xbdb6a066	-0.08917312
145	0xbd619820	-0.05507672
146	0xbd7d4859	-0.061836574
147	0x3dc78f3d	0.097441174
148	0x3dd72f20	0.10507035
149	0x3dffae00	0.1248436
150	0x3e13d167	0.1443535
151	0x3e1ba2f9	0.15198888
152	0x3dd0449f	0.101693384
153	0x3c9a8c87	0.018865837
154	0x3c288966	0.010286665
155	0xbc0dab38	-0.008646779
156	0xbe2e3d26	-0.17015514
157	0xbdd9080a	-0.105972365
158	0x3cd5d73e	0.026103612
159	0xbe2a43d0	-0.16627431
160	0xbdbf2ccc	-0.09334716
161	0xbdec3f05	-0.115354575
162	0x3de0c0e4	0.10974291
163	0x3dff5950	0.12468207
164	0xbe2a7946	-0.16647825
165	0xbe374a38	-0.17899406
166	0x3d982825	0.07429532
167	0x3d710a36	0.05884763
168	0xbd2ff04d	-0.042953778
169	0xbe1304ee	-0.1435735
170	0x3d80d0cc	0.06289825
171	0x3d2fd250	0.04292518
172	0xbe2877c8	-0.16451943
173	0x3d803b25	0.06261281
174	0xbe001aac	-0.12510175
175	0xbe1cf349	-0.15327181
176	0xbc14ad84	-0.0090745725
177	0xbdb5898b	-0.08864125
178	0x3db8f9cb	0.09032019
179	0x3e0c2033	0.13684158
180	0xbc20e632	-0.009820508
181	0x3df730c5	0.12069849
182	0xbd68b02f	-0.056808647
183	0xbd63bf4c	-0.055602357
184	0xbe0f5ecb	-0.14001004
185	0x3de644c9	0.112435885
186	0xbdf0112e	-0.11722027
187	0xbce142e4	-0.027497716
188	0xbe037813	-0.12838773
189	0xbe446be1	-0.19181778
190	0x3ddc2de1	0.10750938
191	0xbdc72d5c	-0.097254485
192	0x3e1c1296	0.15241465
193	0x3bc73f35	0.006080533
194	0xbde44832	-0.11146583
195	0x3d1c371f	0.038138505
196	0x3caa1240	0.020760655
197	0x3cbafa9e	0.022824582
198	0xbe1814de	-0.1485171
199	0xbbbbbaa3	-0.005729036
200	0x3e3ec5c6	0.18630132
201	0x3d8ffbe9	0.0703047
202	0x3dfcd76d	0.12345777
203	0x3df06b00	0.11739159
204	0xbe1b04c3	-0.15138535
205	0x3dd057eb	0.10173019
206	0x3d4b87aa	0.049689926
207	0x3d8a8507	0.06763654
208	0xbe1a1da2	-0.15050367
209	0x3dedc948	0.11610657
210	0xbe300ce0	-0.17192411
211	0x3cabb09a	0.020958234
212	0xbda1d0ef	-0.07901179
213	0x3c5643d2	0.013077693
214	0xbe263a1e	-0.16233107
215	0xbdb24ac6	-0.08705668
216	0xbe179470	-0.14802718
217	0x3e0386d9	0.12844409
218	0x3e02374c	0.12716407
219	0x3e0d9ac2	0.13828567
220	0xbe0aef04	-0.1356774
221	0xbd8f89d7	-0.07008713
222	0xbdb5fc97	-0.08886068
223	0x3d55f4e8	0.052235514
224	0xbdf03ce8	-0.11730367
225	0xbddfd960	-0.10930133
226	0xbe15a215	-0.1461261
227	0x3dd4456d	0.103648044
228	0x3dd3d714	0.10343757
229	0xbdaf8bed	-0.085716106
230	0xbc7caa5d	-0.015421477
231	0x3d21ec0a	0.039531745
232	0xbdeb91aa	-0.115023926
233	0x3d82693e	0.063677296
234	0xbd290beb	-0.04127113
235	0xbe071d0d	-0.13194676
236	0x3ca37833	0.019954776
237	0xbe2b85f1	-0.16750313
238	0x3d2fa4b7	0.042881694
239	0x3da65bac	0.08122954
240	0xbdf5390e	-0.11973773
241	0x3e1bd0ba	0.15216342
242	0xbc8e432a	-0.01736601
243	0xbd0ab957	-0.03386816
244	0x3e20a0b8	0.1568631
245	0x3daec294	0.085332066
246	0xbe0512ad	-0.12995405
247	0x3e01c5f8	0.12673175
248	0x3e0e3091	0.13885714
249	0xbc276e56	-0.010219177
250	0xbd9802f3	-0.074224375
251	0x3d9e31e5	0.077243604
252	0x3dc1cbfd	0.09462736
253	0xbe297f7a	-0.16552535
254	0x3cc57412	0.024103198
255	0xbe18efa7	-0.1493517

conv3.bias f4 [64]
0	0xbbb319e0	-0.005465731
1	0xb37f9808	-5.9510086e-08
2	0xb3778333	-5.7628494e-08
3	0x3bd6a677	0.006550606
4	0x3a615dd1	0.00085970486
5	0xb44df670	-1.9181766e-07
6	0xb823bc45	-3.9037568e-05
7	0xb3c37c0e	-9.1029605e-08
8	0xbb04f3f0	-0.0020287
9	0xbcbff8fc	-0.023434155
10	0x39906e9b	0.00027548228
11	0xbc8b3c93	-0.016996657
12	0xb9c768f4	-0.00038034434
13	0xb97e481c	-0.0002425019
14	0xbc8a2ad8	-0.016866133
15	0x3b49dd14	0.003080194
16	0xbc840a31	-0.01611814
17	0xbb4a920f	-0.0030909812
18	0xba9d3700	-0.0011994541
19	0xba240755	-0.0006257196
20	0x32062563	7.808327e-09
21	0x3b779b8c	0.0037781922
22	0xb49d4455	-2.9293247e-07
23	0xbb1bd024	-0.0023775185
24	0x3cbb03d3	0.022828972
25	0x3c9d8f87	0.019233478
26	0xb4a236c8	-3.021471e-07
27	0xb30e7ee7	-3.317737e-08
28	0xb6af7662	-5.229188e-06
29	0x3c119a37	0.008886865
30	0x332bd30d	4.000599e-08
31	0x3a95d8fa	0.0011432462
32	0x399760e9	0.00028873168
33	0xb89fde6c	-7.62314e-05
34	0xbc425bc7	-0.011862702
35	0x3c77eb74	0.01513182
36	0x3ca44579	0.020052658
37	0x3b7534dd	0.0037415542
38	0xb7fa525c	-2.9840674e-05
39	0x3cab04d6	0.02087633
40	0x3a65e7ae	0.00087701797
41	0xb34bcb66	-4.744961e-08
42	0x321d8212	9.168177e-09
43	0x3255c5af	1.244318e-08
44	0xbb11ecda	-0.0022266419
45	0x3c0c0ada	0.008547509
46	0xb3fefa39	-1.1873312e-07
47	0xb4a28755	-3.0273318e-07
48	0x31b135b4	5.1574833e-09
49	0xb8bcc65b	-9.001485e-05
50	0x3c7711cd	0.015079928
51	0xbcc10614	-0.023562469
52	0xb3c4cb13	-9.1639e-08
53	0x3a3e6ee0	0.00072644465
54	0x3b2bdfdf	0.0026225967
55	0x32b0e619	2.0593733e-08
56	0x3addf20d	0.0016933099
57	0xb3faaa47	-1.16725055e-07
58	0xb59c096a	-1.1625646e-06
59	0xb2d8593c	-2.5186289e-08
60	0xba2cfffc	-0.0006599424
61	0x3ca6fa82	0.020383123
62	0xb6be09e3	-5.663592e-06
63	0xb6461d41	-2.9521327e-06

bn3.weight f4 [64]
0	0x3f77f476	0.9685739
1	0x3f8138f3	1.0095505
2	0x3f7b1a01	0.98086554
3	0x3f7cda11	0.9877024
4	0x3f79d4b5	0.9759019
5	0x3f746618	0.9546828
6	0x3f803575	1.0016314
7	0x3f784717	0.96983474
8	0x3f7e46ad	0.9932659
9	0x3f7c2e6c	0.98508334
10	0x3f797cde	0.9745616
11	0x3f838295	1.0274225
12	0x3f7d2b05	0.9889377
13	0x3f80daaf	1.0066737
14	0x3f851d64	1.0399594
15	0x3f7a1e7b	0.9770276
16	0x3f7c2e21	0.9850789
17	0x3f7fa479	0.9986034
18	0x3f7ab13c	0.9792669
19	0x3f7c3f52	0.9853412
20	0x3f6bf5a6	0.92171705
21	0x3f802fbe	1.001457
22	0x3f7d5a69	0.9896608
23	0x3f82dd13	1.0223716
24	0x3f7caf1c	0.98704696
25	0x3f73a51e	0.95173824
26	0x3f73f55b	0.9529626
27	0x3f7b9e48	0.98288393
28	0x3f7ba854	0.98303723
29	0x3f81423b	1.0098337
30	0x3f7ba4f4	0.98298573
31	0x3f6d478b	0.9268729
32	0x3f7b959f	0.9827518
33	0x3f75c0a7	0.9599709
34	0x3f7c879f	0.9864444
35	0x3f7911bf	0.97292703
36	0x3f7b6041	0.98193747
37	0x3f79ccc4	0.9757807
38	0x3f7e179d	0.9925478
39	0x3f78f7e5	0.9725326
40	0x3f74cea9	0.9562784
41	0x3f7a356b	0.9773776
42	0x3f802796	1.0012081
43	0x3f720c0e	0.94549644
44	0x3f77cfa5	0.96801215
45	0x3f85fd83	1.0467991
46	0x3f80ba1c	1.0056796
47	0x3f843330	1.0328121
48	0x3f7be05b	0.98389214
49	0x3f7f0c26	0.9962791
50	0x3f797e47	0.9745831
51	0x3f7d0df3	0.9884941
52	0x3f7a289c	0.97718215
53	0x3f7d8f5f	0.9904689
54	0x3f7c1026	0.9846214
55	0x3f765b2d	0.96232873
56	0x3f7a3975	0.9774392
57	0x3f7cc961	0.9874478
58	0x3f77c875	0.9679025
59	0x3f81a90a	1.0129712
60	0x3f7a0691	0.9766627
61	0x3f781a9d	0.9691561
62	0x3f7c5719	0.985704
63	0x3f82415c	1.0176196

bn3.bias f4 [64]
0	0x3c06a22e	0.008217378
1	0x3d0792a8	0.033098847
2	0xb80825a5	-3.2459986e-05
3	0xbb5ca65e	-0.0033668499
4	0xbc7c05af	-0.015382214
5	0xbcebbdab	-0.028776964
6	0x3cf2a582	0.029619936
7	0x3bcbadfc	0.006215809
8	0xbc2eaae8	-0.010660864
9	0x3c0e64cd	0.008691025
10	0x3c8000ba	0.015625346
11	0x3ba74a9b	0.005105329
12	0xbb3059bf	-0.0026908962
13	0xbbeda56e	-0.007252387
14	0x3c94c531	0.018160434
15	0xbba3eaff	-0.005002379
16	0x3bcd1fd3	0.0062598973
17	0x3cb830fe	0.022484299
18	0x3d2000b0	0.039063156
19	0x3bf9ed19	0.007627141
20	0x3b6d82d3	0.0036241307
21	0xbb0b80fe	-0.0021286602
22	0x3c0893d8	0.00833603
23	0x3c89b66a	0.016810615
24	0xbc92bd84	-0.017912634
25	0x3bff1cb1	0.0077854027
26	0x3bf1d906	0.0073806075
27	0x3cc84f80	0.024451971
28	0xbcf9cac9	-0.030492203
29	0xbbd7b438	-0.006582763
30	0x3c1ef9ff	0.009703158
31	0xbbde5ab7	-0.0067857164
32	0xbc1652f9	-0.009175056
33	0x3cdb50c8	0.026771918
34	0x3bae3fdf	0.0053176726
35	0xbcf42377	-0.029802067
36	0x3bbdfe80	0.005798161
37	0x3bb0a586	0.0053908257
38	0x3c97b1da	0.018517423
39	0x3c0196d1	0.007909493
40	0xbcbb87f5	-0.022891978
41	0x3b807e76	0.0039213253
42	0x3d7ba5d9	0.06143746
43	0x3a0972d2	0.0005243245
44	0x3d05fc7b	0.032711487
45	0x3c28076f	0.010255679
46	0xbc0fdee0	-0.008781165
47	0xbd3e6c15	-0.046489794
48	0x3cc28240	0.023743749
49	0xbbe09849	-0.0068540913
50	0xbb1ed7bd	-0.0024237477
51	0xbc7a0ac6	-0.015261358
52	0xbcf68a3b	-0.03009521
53	0x3c45e9e9	0.012079694
54	0x3d00f561	0.03148401
55	0x3c555962	0.013021799
56	0xbca6c2a9	-0.020356493
57	0x3bae0662	0.0053108195
58	0x3c2e3a47	0.010634012
59	0x3d1f7a14	0.038934782
60	0xbccd4ff8	-0.025062546
61	0x3d1bb076	0.038010083
62	0xbb557103	-0.003256858
63	0xbc0b2031	-0.008491562

bn3.running_mean f4 [64]
0	0x3db54f1f	0.08852982
1	0x3e4216e6	0.18954048
2	0x3e1aab1a	0.15104333
3	0x3d783386	0.06059601
4	0x3e57aec9	0.21062769
5	0xbe8fc9d4	-0.2808367
6	0x3c7c1749	0.015386411
7	0xbd84d025	-0.06485013
8	0x3e4e4f20	0.20147371
9	0xbd19f3e5	-0.03758611
10	0xbe89e83d	-0.26934996
11	0x3aacad28	0.0013174163
12	0xbd81d85f	-0.06340098
13	0x3d15741f	0.036487695
14	0x3c54f1a0	0.012997061
15	0xbdadce15	-0.08486573
16	0x3e2708b8	0.1631192
17	0xbdf2d502	-0.11857034
18	0x3ee3de1c	0.44505394
19	0x3dd15d4c	0.10222873
20	0xbe910f9e	-0.28332227
21	0xbd31000d	-0.04321294
22	0x3ee5447a	0.44778806
23	0x3d3a131f	0.04542839
24	0x3dfb63fb	0.12274929
25	0xbd917971	-0.07103241
26	0xbdb861e8	-0.09003049
27	0x3e853ec3	0.26024446
28	0x3e8abec3	0.27098665
29	0x3da4723c	0.08029601
30	0x3ebe37ff	0.37152097
31	0xbe8478dc	-0.25873458
32	0x3ec91ee8	0.39281392
33	0xbd996b0a	-0.07491119
34	0x3d820952	0.06349434
35	0xbd970b79	-0.07375235
36	0xbdb2dd05	-0.087335624
37	0xbe4a773d	-0.19772048
38	0x3d4961e4	0.04916562
39	0x3cb91db7	0.022597177
40	0xbe538f47	-0.20660125
41	0xbcf8bc02	-0.030363087
42	0x3e1c0ae8	0.15238535
43	0xbe6e5471	-0.232744
44	0x3e5e5386	0.21711549
45	0xbcdf762b	-0.027278027
46	0x3dc4e1e0	0.09613395
47	0xbd6105d4	-0.0549372
48	0x3dd63769	0.104597874
49	0x3de22da9	0.11043865
50	0xbe27d52d	-0.16389914
51	0x3d82d44b	0.06388148
52	0x3df7c372	0.12097825
53	0xbcfa19f9	-0.030529963
54	0xbe2e307d	-0.17010684
55	0xbe91b23e	-0.284563
56	0xbe21f80c	-0.15817279
57	0x3d4b494d	0.049630452
58	0xbea720c5	-0.3264219
59	0x3cdf0813	0.02722553
60	0xbdd31801	-0.10307313
61	0x3dd9fc4c	0.10643825
62	0xbe03d753	-0.12875108
63	0xbbbed933	-0.005824232

bn3.running_var f4 [64]
0	0x3d8ab46b	0.06772693
1	0x3e5443c6	0.20728979
2	0x3da82104	0.08209422
3	0x3d970e09	0.07375724
4	0x3e499f39	0.19689645
5	0x3ef62eb2	0.480825
6	0x3d40ea1e	0.04709827
7	0x3e3199d2	0.17343834
8	0x3e0e74fe	0.13911816
9	0x3e252725	0.16128214
10	0x3e157521	0.14595462
11	0x3ddeec86	0.10884957
12	0x3e9f0d4d	0.31064835
13	0x3d329384	0.043597713
14	0x3d0ec860	0.03485906
15	0x3dd3c24a	0.10339792
16	0x3e87c56c	0.26517808
17	0x3dc2144e	0.09476529
18	0x3f4b6402	0.79449475
19	0x3d98ee91	0.07467378
20	0x3ec416ac	0.38298547
21	0x3dbe1286	0.09280877
22	0x3fab5da2	1.338795
23	0x3db2f2d1	0.0873772
24	0x3dd43947	0.10362487
25	0x3eb18a41	0.34675792
26	0x3ed1d0f7	0.4097974
27	0x3f19e066	0.6010803
28	0x3e88d774	0.26726878
29	0x3e0357a3	0.128264
30	0x3f91cc20	1.1390419
31	0x3eb70db9	0.35752657
32	0x3fcd61b2	1.6045439
33	0x3e587769	0.21139301
34	0x3ea777c0	0.3270855
35	0x3de5b247	0.11215644
36	0x3d9bc7db	0.07606479
37	0x3e1ba007	0.15197764
38	0x3e07fbb5	0.13279612
39	0x3def5b62	0.11687352
40	0x3e86290e	0.26203197
41	0x3dcdaba7	0.10042506
42	0x3e89e54c	0.26932752
43	0x3eb150a6	0.34631842
44	0x3e82aec3	0.25523958
45	0x3d89560c	0.06705865
46	0x3dc50deb	0.09621795
47	0x3d8f20ce	0.06988679
48	0x3ee1fc2c	0.44137704
49	0x3e123a15	0.14279969
50	0x3e4d369b	0.20040362
51	0x3f1b8ca8	0.607615
52	0x3f18627e	0.5952529
53	0x3d9806e7	0.074231915
54	0x3dc62d38	0.096765935
55	0x3f0909c6	0.5353054
56	0x3e4e258f	0.20131515
57	0x3da94c43	0.08266499
58	0x3f6674a8	0.90021753
59	0x3e2e889a	0.17044297
60	0x3e9157c8	0.28387284
61	0x3f18c5bc	0.5967672
62	0x3dfe9681	0.1243105
63	0x3e4a34b0	0.19746661

conv4.weight f4 [64, 64, 1, 1]
0	0xbdbc0d3f	-0.09182214
1	0xbd587c7c	-0.052853093
2	0x3d78cda9	0.060743008
3	0xbd260f16	-0.04054173
4	0x3d930f75	0.071806826
5	0x3d63d446	0.05562236
6	0x3d86e671	0.06586922
7	0xbdaa178f	-0.08305275
8	0x3d3b7a4e	0.045770936
9	0xbd65afad	-0.05607574
10	0x3cefc823	0.029270237
11	0x3ce1804f	0.027527003
12	0xbc67260f	-0.014108195
13	0xbd17d363	-0.03706683
14	0x3d3911ed	0.04518311
15	0xbd3c78ef	-0.04601377
16	0x3b8f4b4c	0.0043729898
17	0xbdd5ed78	-0.10445684
18	0xbd043af6	-0.032282792
19	0xbbf31a75	-0.0074189254
20	0x3d409587	0.0470176
21	0x3d1bf7f7	0.038078275
22	0x3d147acd	0.036249924
23	0xbcb83460	-0.022485912
24	0xbcfc7d73	-0.030821538
25	0xbcbc51ad	-0.022988165
26	0xbd9b3e41	-0.07580233
27	0x3dca2daf	0.09871995
28	0x3b9f900d	0.004869467
29	0xbe13b598	-0.14424741
30	0x3db141fd	0.086551644
31	0x3d680e14	0.05665405
32	0x3d1b6473	0.037937593
33	0xbd683f29	-0.05670086
34	0xbdbb1364	-0.09134558
35	0x3d1486ea	0.036261477
36	0xbdcc2401	-0.09967805
37	0x3a132963	0.0005613772
38	0x3d499b13	0.049220156
39	0xbd91bd33	-0.07116165
40	0x3d983de7	0.07433682
41	0x3d343105	0.04399206
42	0x3dd99183	0.10623457
43	0xbd8eecdc	-0.06978771
44	0xbd8fa4d0	-0.07013857
45	0xbde094b7	-0.10965865
46	0x3b87bdac	0.0041424837
47	0x3d882346	0.06647353
48	0xbc968f93	-0.018379008
49	0xbdab227a	-0.08356185
50	0xbe001737	-0.12508856
51	0x3c8e23bd	0.017351026
52	0x3de5710d	0.11203203
53	0xbd8aab15	-0.067709126
54	0xbd1f5f23	-0.03890909
55	0x3db18253	0.086674355
56	0xbdb12088	-0.08648783
57	0x3d702b2e	0.05863493
58	0x3d9cc938	0.07655567
59	0xbc66793e	-0.014066992
60	0x3da973df	0.08274054
61	0xbda06ea6	-0.078336045
62	0xbd115169	-0.03547803
63	0xbce6fe93	-0.028197562
64	0x3e09da9b	0.13462298
65	0xbd6fa2b1	-0.058504764
66	0x3c95729e	0.01824313
67	0xbdced82d	-0.10099826
68	0xbceae9b4	-0.028675891
69	0xbdd23f01	-0.10265923
70	0x3d1a96de	0.037741534
71	0x3d32312a	0.043503918
72	0xbdbf128c	-0.093297094
73	0x3cbc5a3e	0.02299225
74	0xbd62d375	-0.055377442
75	0x3d42d5f4	0.047567323
76	0x3dd52b29	0.10408623
77	0x3b4eb526	0.0031541078
78	0xbdc94d13	-0.09829154
79	0xbdded746	-0.10880904
80	0x3d1f1a06	0.038843177
81	0x3dba9e02	0.09112169
82	0x3d803672	0.062603846
83	0xbab9bc2d	-0.0014170461
84	0xbda16822	-0.0788119
85	0xbce874e2	-0.028376047
86	0x3dfc0baf	0.12306916
87	0x3db28acd	0.087178804
88	0xbdcf01ef	-0.10107791
89	0x3d908739	0.07057042
90	0xbe009f18	-0.1256069
91	0x3dcbb736	0.09947054
92	0x3dcc5ce8	0.09978658
93	0xbc2cdc75	-0.010550608
94	0x3db9f385	0.09079651
95	0x3d845b2f	0.064627044
96	0x3d55d089	0.052200828
97	0x3df8ca3b	0.121479474
98	0xbdd81c90	-0.10552323
99	0x3d0b617f	0.034028526
100	0x3b3d2ac0	0.0028864592
101	0x3da19dc2	0.07891418
102	0xbd1135c4	-0.035451666
103	0x3dfd9b93	0.12383189
104	0xbd91da8c	-0.07121763
105	0xbe0062be	-0.12537667
106	0xbca2f35b	-0.019891432
107	0x3d561412	0.052265234
108	0x3ddecd35	0.10878984
109	0xbd2760e7	-0.040863898
110	0xbce05c04	-0.027387626
111	0x3c61df83	0.0137861995
112	0xbc432221	-0.011909992
113	0x3c2a5d2b	0.01039819
114	0x3ce3c436	0.027803522
115	0x3d8e4e5c	0.069485396
116	0x3c93ead3	0.018056309
117	0x3db879ed	0.090076305
118	0xbdb884ea	-0.09009726
119	0xbdb8ad7d	-0.09017465
120	0xbdc4b476	-0.09604733
121	0xbd810d88	-0.06301409
122	0x3dc015c0	0.093791485
123	0xbd5b1421	-0.053485993
124	0x3e0eec9a	0.13957444
125	0xbd24d7a5	-0.040244717
126	0x3daea135	0.085268416
127	0xbdf5ada8	-0.11996013
128	0xbdd388f5	-0.10328857
129	0xbdd1c0c3	-0.102418445
130	0x3d95ce72	0.07314767
131	0x3bb95685	0.005656066
132	0x3d935bb9	0.07195229
133	0xbde8aad4	-0.11360708
134	0x3d9523be	0.07282208
135	0xbe0b4a05	-0.13602455
136	0x3ce47452	0.027887497
137	0x3d72b62e	0.05925577
138	0xbc718b92	-0.014742749
139	0x3cd6ad1f	0.026205597
140	0x3b6406cd	0.0034794093
141	0x3d24dfb7	0.040252414
142	0xbdeca720	-0.11555314
143	0xbe149257	-0.14508949
144	0x3d2f4ece	0.042799763
145	0x3c45a4f8	0.012063257
146	0x3d60fbe5	0.054927725
147	0x3c8ed571	0.017435761
148	0x3d5fc4ae	0.054630928
149	0xbdf0cc87	-0.117577605
150	0x3d15d735	0.03658219
151	0xbd9ece1a	-0.077541545
152	0xbced8c8f	-0.028997688
153	0xbd6d7a44	-0.05797793
154	0x3da59e57	0.080868416
155	0xbdc776aa	-0.0973943
156	0xbd8e10df	-0.06936812
157	0xbcb033d0	-0.021509081
158	0xbd89ad5e	-0.0672252
159	0xbdc66caa	-0.09688695
160	0xba185f25	-0.00058125175
161	0x3d68603c	0.0567324
162	0xbd7ec917	-0.062203493
163	0x3c60b393	0.013714689
164	0xbe101622	-0.14070943
165	0xbb935245	-0.0044958913
166	0x3dda2452	0.10651459
167	0xbd203bc8	-0.03911951
168	0xbdcd76e8	-0.10032445
169	0xbd5b8e0f	-0.053602275
170	0xbc92c9b4	-0.017918445
171	0xbd93627f	-0.07196521
172	0xbc061c33	-0.008185434
173	0xbdca815a	-0.09887953
174	0x3d4ea8de	0.050454013
175	0x3da61b04	0.081106216
176	0xbd618c61	-0.055065516
177	0xbc0e9a41	-0.008703769
178	0x3c76f07f	0.015071987
179	0x3d25d79d	0.040488828
180	0xbd1ce4d9	-0.038304184
181	0x3d9f17e1	0.077682264
182	0xbdd9a229	-0.10626633
183	0x3d9900fb	0.0747089
184	0xbdcb7eea	-0.09936316
185	0x3d6d76fd	0.057974804
186	0xbdf55d13	-0.11980643
187	0xbd325f2d	-0.043547798
188	0xbd830bde	-0.06398748
189	0x3b2e90a6	0.002663651
190	0xbe0b789f	-0.13620232
191	0xbe026d6f	-0.12737058
192	0x3c02f793	0.007993597
193	0xbbd667e2	-0.0065431455
194	0x3d620afa	0.05518625
195	0xbcdd26a4	-0.026995964
196	0xbbbe93d1	-0.005815961
197	0xbdac1e6d	-0.08404241
198	0x3cb3e40f	0.021959333
199	0xbc846529	-0.016161518
200	0x3da4927a	0.08035751
201	0xbdb02a19	-0.086017795
202	0x3cb918e3	0.022594875
203	0x3b1b8710	0.0023731627
204	0x3de71ca3	0.11284759
205	0xbde97e08	-0.11400992
206	0xbd694a93	-0.056955885
207	0x3dc44f43	0.095854305
208	0xbce98f2f	-0.028510658
209	0xbe08edfb	-0.13372032
210	0xbd4c06cd	-0.049811173
211	0x3da07d83	0.078364395
212	0x3c84264b	0.01613154
213	0x3dd5ce35	0.104397215
214	0x3dc7943b	0.097450696
215	0xbdaa3cdd	-0.0831239
216	0x3ded0e25	0.115749635
217	0x3d181d00	0.03713703
218	0xbd208bf4	-0.03919597
219	0xbcce84c5	-0.025209794
220	0xbcc5a74f	-0.02412763
221	0x3d680ddf	0.056653854
222	0xbd0e217b	-0.0346999
223	0xbdca5a5d	-0.09880517
224	0xbd938268	-0.072026074
225	0xbc922c87	-0.017843498
226	0x3d68112e	0.05665701
227	0xbd76b826	-0.06023421
228	0x3dd4928b	0.10379513
229	0x3d827230	0.06369436
230	0x3a0e92d9	0.0005438752
231	0xbd5330f0	-0.051560342
232	0x3d0ef3c1	0.03490043
233	0x3d0279aa	0.03185431
234	0x3c5a1842	0.013311448
235	0xbdcc2b34	-0.09969178
236	0xbdb37cca	-0.08764036
237	0x3cc3f4be	0.023920413
238	0x3dc20174	0.094729334
239	0xbd692a87	-0.056925323
240	0xbd522152	-0.051301308
241	0x3d68d8f3	0.056847524
242	0x3d9f1f10	0.077695966
243	0xbd9d3149	-0.07675416
244	0xbdcb83b7	-0.09937232
245	0xbd50300e	-0.05082708
246	0x3dc055a6	0.09391336
247	0xbdd08ba8	-0.10182887
248	0x3df2987a	0.11845489
249	0x3d99a46b	0.07502063
250	0xbdc29877	-0.095017366
251	0x3dc9cfc2	0.0985408
252	0x3db9f7af	0.09080445
253	0xbd16a2e0	-0.036776423
254	0x3dd1cbd7	0.102439575
255	0xbcc5c4fb	-0.02414178

conv4.bias f4 [64]
0	0x3b03fc1a	0.0020139278
1	0xb1e0f9ee	-6.5476717e-09
2	0xb643bb31	-2.9166224e-06
3	0xb31fea0f	-3.7232947e-08
4	0x3401307c	1.20317e-07
5	0xbb33d13d	-0.0027437948
6	0xb4fe9123	-4.7416788e-07
7	0x344df3fb	1.9180872e-07
8	0x39fa3d33	0.00047729313
9	0xb6e05df2	-6.686657e-06
10	0xb620a9d5	-2.3940713e-06
11	0xb2a4fcdf	-1.9207105e-08
12	0xbb987412	-0.0046525085
13	0x370baae2	8.324832e-06
14	0xb5adcdca	-1.2949397e-06
15	0x312a97fb	2.4824647e-09
16	0x33c3dbb0	9.120356e-08
17	0x3a3bbbab	0.00071614486
18	0x350ae68c	5.1744496e-07
19	0x338c44bb	6.53176e-08
20	0xbb9757f9	-0.0046186415
21	0x35602093	8.3493904e-07
22	0xb5ec29db	-1.7595552e-06
23	0xb6cd4ba8	-6.1182836e-06
24	0xb2d8d641	-2.5243141e-08
25	0xb12b4dd8	-2.4928024e-09
26	0xb7976456	-1.8047325e-05
27	0xb99a78e1	-0.0002946323
28	0xb39532a9	-6.947568e-08
29	0xb474b631	-2.2790552e-07
30	0xb3417e55	-4.5051213e-08
31	0x31c16081	5.6280105e-09
32	0xb3db49ab	-1.0211382e-07
33	0x3592e0b5	1.0943246e-06
34	0xb168f92b	-3.390208e-09
35	0xba9e32d1	-0.0012069588
36	0x33f8ce79	1.1585957e-07
37	0xb3eb42a4	-1.0955162e-07
38	0x349c659a	2.913119e-07
39	0x393d6ffb	0.0001806616
40	0xbb83358a	-0.004004185
41	0xbad60859	-0.0016329392
42	0xba2bcabe	-0.0006553343
43	0x355a4d73	8.132403e-07
44	0x3575829e	9.1459685e-07
45	0x3a775922	0.0009435584
46	0x3ab3a584	0.0013705944
47	0x38f5fa08	0.00011729082
48	0x346b729f	2.192778e-07
49	0xb540fdb7	-7.189478e-07
50	0xbb6968e3	-0.0035615496
51	0xb29da5fa	-1.8352683e-08
52	0xb66b1dfa	-3.5035177e-06
53	0x384fe345	4.9564307e-05
54	0xb6124b45	-2.1799508e-06
55	0x34923f61	2.7240733e-07
56	0x3b441eef	0.0029925664
57	0xb29851ff	-1.7732416e-08
58	0x3b89b28a	0.0042021917
59	0xb41ee386	-1.4797669e-07
60	0x3226b912	9.704552e-09
61	0xb648bca6	-2.991213e-06
62	0x340bb9c0	1.3012959e-07
63	0x32a2a4c8	1.8934216e-08

bn4.weight f4 [64]
0	0x3f7e39c7	0.9930691
1	0x3f838f74	1.0278153
2	0x3f81cf59	1.0141402
3	0x3f82165c	1.0163074
4	0x3f851547	1.0397118
5	0x3f872492	1.0558035
6	0x3f836565	1.0265318
7	0x3f8684ac	1.0509238
8	0x3f839397	1.0279416
9	0x3f838080	1.027359
10	0x3f844132	1.0332396
11	0x3f83fa9a	1.0310853
12	0x3f85c55d	1.0450855
13	0x3f8748e7	1.0569123
14	0x3f84beb1	1.0370694
15	0x3f858592	1.0431387
16	0x3f84dde5	1.0380217
17	0x3f8273ec	1.0191627
18	0x3f8612be	1.047447
19	0x3f83d1de	1.0298421
20	0x3f824520	1.0177345
21	0x3f864ccd	1.0492188
22	0x3f809931	1.004675
23	0x3f813ae2	1.0096095
24	0x3f7c6a63	0.98599833
25	0x3f80eb41	1.0071794
26	0x3f82ac10	1.0208759
27	0x3f7ca173	0.9868385
28	0x3f84b07e	1.0366361
29	0x3f86bc22	1.0526164
30	0x3f828c6b	1.0199102
31	0x3f841eef	1.032194
32	0x3f81cf35	1.014136
33	0x3f7976d5	0.9744695
34	0x3f860427	1.0470017
35	0x3f86dd2b	1.0536245
36	0x3f8366f9	1.02658
37	0x3f7cd88b	0.9876792
38	0x3f85bd66	1.0448425
39	0x3f81686d	1.0109993
40	0x3f8071d3	1.0034736
41	0x3f86713f	1.050331
42	0x3f81d8b2	1.0144255
43	0x3f8838d0	1.0642338
44	0x3f82055e	1.0157888
45	0x3f857343	1.04258
46	0x3f863a1d	1.0486485
47	0x3f85a43e	1.0440748
48	0x3f7dd965	0.9915984
49	0x3f84471c	1.0334201
50	0x3f7d1410	0.9885874
51	0x3f7a1582	0.9768907
52	0x3f7f2345	0.9966319
53	0x3f8750b4	1.0571504
54	0x3f83850a	1.0274975
55	0x3f81f394	1.0152459
56	0x3f830e89	1.0238811
57	0x3f84d8b4	1.0378633
58	0x3f834143	1.0254291
59	0x3f849a00	1.0359497
60	0x3f859f58	1.0439253
61	0x3f7f94d1	0.9983645
62	0x3f87931f	1.0591773
63	0x3f84806d	1.0351692

bn4.bias f4 [64]
0	0x3ce0c99f	0.02743989
1	0x3cd37e58	0.025817081
2	0x3cea8052	0.028625641
3	0xbc01529b	-0.00789323
4	0x3d04522c	0.032304928
5	0x3d0b3c83	0.033993255
6	0x3d0b2de2	0.033979304
7	0x3d1c275b	0.03812347
8	0x3b7ae53c	0.0038283607
9	0x3cfeca70	0.03110239
10	0x3cbf04a4	0.023317643
11	0x3ceea818	0.029132888
12	0x3bd0b2a1	0.0063689505
13	0x3d15789e	0.036491983
14	0x3cb4b5ed	0.022059405
15	0xb9e2ba83	-0.0004324504
16	0x3c69a78a	0.014261136
17	0x3d05f0d5	0.03270038
18	0x3d28e1f9	0.04123113
19	0xbb9e0e3a	-0.0048234733
20	0xbc369dd2	-0.011146026
21	0x3ce7a5b1	0.02827725
22	0x3cfe53e0	0.031045854
23	0x3d007341	0.031359915
24	0x3cc1c379	0.023652779
25	0x3ccc52e2	0.024941865
26	0x3c972442	0.018449906
27	0x3c2a599e	0.010397343
28	0x3ce8a986	0.028401148
29	0x3ce49964	0.027905174
30	0x3c8b4209	0.016999261
31	0x3d313660	0.043264747
32	0x3d259f1e	0.04043495
33	0x3c6fafaf	0.014629289
34	0x3c0c54fa	0.008565182
35	0x3c84ee00	0.016226768
36	0xbbc20476	-0.005920942
37	0x3c726ef0	0.014796957
38	0x3c9c9e65	0.019118497
39	0x3cec6537	0.028856857
40	0x3aeeed4c	0.0018228679
41	0x3d259d8e	0.04043346
42	0x3b173239	0.0023070707
43	0x3d415cc5	0.047207613
44	0x3cee9bd8	0.029127046
45	0x3cdc9585	0.026926765
46	0x3cc5418b	0.024079105
47	0x3cb7b7bc	0.022426479
48	0x3c89de1a	0.01682954
49	0x3ba36dd8	0.0049874596
50	0x3d00aecb	0.031416696
51	0x3bdf9417	0.0068230736
52	0x3c891e80	0.016738176
53	0x3cb9a12d	0.022659862
54	0x3ce42f83	0.027854687
55	0x3c8cc2b2	0.017182682
56	0x3c18c5ca	0.0093245
57	0x3cd9e9fb	0.026600828
58	0x3c0c0827	0.008546866
59	0xbab069aa	-0.0013459225
60	0x3c9dfdab	0.019285997
61	0x3c078122	0.008270534
62	0x3cc714b6	0.024301868
63	0x3cd7dea1	0.026351275

bn4.running_mean f4 [64]
0	0xbddc1f58	-0.10748166
1	0x3dfb4ec2	0.12270881
2	0xbeae2e44	-0.34019673
3	0x3db45c8c	0.088067144
4	0x3e30aaa1	0.1725259
5	0x3ceb8d3d	0.028753871
6	0xbdc03fc8	-0.09387165
7	0x3e04f5d9	0.12984408
8	0x3dc87cde	0.097894415
9	0x3d40ee97	0.047102537
10	0x3dd52f42	0.10409404
11	0x3d734b6e	0.059398107
12	0x3cf708e8	0.030155614
13	0x3db94fb5	0.09048406
14	0x3e0f0c6d	0.13969584
15	0x3ce1f4d3	0.027582562
16	0x3e01530f	0.1262934
17	0xbd469cd5	-0.04848941
18	0x3e0911a3	0.13385634
19	0x3dc55fd7	0.096374206
20	0x3d88e693	0.066846035
21	0x3dfc12bb	0.1230826
22	0xbd55ae0a	-0.05216793
23	0xbea754fa	-0.3268202
24	0xbeb712b7	-0.35756466
25	0x3c222e9c	0.009898808
26	0x3d01c876	0.031685315
27	0xbdced555	-0.100992836
28	0xbaddd80d	-0.001692535
29	0x3dcda081	0.10040379
30	0x3e6d5414	0.23176605
31	0xbd9a199d	-0.075244166
32	0xbe300a79	-0.17191495
33	0xbe32bde5	-0.17455252
34	0x3df13aef	0.11778819
35	0x3c97b8ff	0.01852083
36	0x3ca7e69e	0.020495709
37	0xbde57653	-0.11204209
38	0x3de426b6	0.11140196
39	0xbea644e9	-0.3247445
40	0x3ea268da	0.3172062
41	0x3d93195b	0.071825705
42	0x3da5bb1e	0.080923304
43	0x3dc76259	0.09735555
44	0xbe329a03	-0.17441563
45	0x3dd0a2a5	0.10187272
46	0x3e1c7ca1	0.15281917
47	0x3dbd2f76	0.09237568
48	0xbd77a485	-0.060459632
49	0x3d2d3416	0.042286
50	0xbe44a419	-0.19203223
51	0xbe9ebc16	-0.31002873
52	0xbd086f53	-0.033309292
53	0x3dbba0ec	0.09161553
54	0x3e0bc738	0.13650215
55	0xbd49a648	-0.049230844
56	0x3de153b8	0.11002296
57	0x3e113a5b	0.14182417
58	0x3dab7521	0.0837195
59	0x3d641a9c	0.05568944
60	0x3bf01f51	0.007327952
61	0xbdd3bd56	-0.10338847
62	0x3da8c90f	0.08241474
63	0x3d9caff5	0.07650749
